…
Namespace(JFrobint=None, JdiagFrobint=None, JoffdiagFrobint=None, atol=1e-05, batch_norm=False, batch_size=500, bn_lag=0, data='pinwheel', dims='64-64-64', divergence_fn='brute_force', dl2int=None, gpu=0, l1int=None, l2int=None, layer_type='concatsquash', log_freq=10, lr=0.001, niters=5000, nonlinearity='elu', num_blocks=1, rademacher=False, residual=False, rtol=1e-05, save='experiments/cnf', solver='dopri5', spectral_norm=False, step_size=None, test_atol=None, test_batch_size=500, test_rtol=None, test_solver=None, time_length=0.5, train_T=True, val_freq=100, viz_freq=100, weight_decay=0)
SequentialFlow(
  (chain): ModuleList(
    (0): CNF(
      (odefunc): RegularizedODEfunc(
        (odefunc): ODEfunc(
          (diffeq): ODEnet(
            (layers): ModuleList(
              (0): ConcatSquashLinear(
                (_layer): Linear(in_features=37, out_features=64, bias=True)
                (_hyper_bias): Linear(in_features=1, out_features=64, bias=False)
                (_hyper_gate): Linear(in_features=1, out_features=64, bias=True)
              )
              (1): ConcatSquashLinear(
                (_layer): Linear(in_features=64, out_features=64, bias=True)
                (_hyper_bias): Linear(in_features=1, out_features=64, bias=False)
                (_hyper_gate): Linear(in_features=1, out_features=64, bias=True)
              )
              (2): ConcatSquashLinear(
                (_layer): Linear(in_features=64, out_features=64, bias=True)
                (_hyper_bias): Linear(in_features=1, out_features=64, bias=False)
                (_hyper_gate): Linear(in_features=1, out_features=64, bias=True)
              )
              (3): ConcatSquashLinear(
                (_layer): Linear(in_features=64, out_features=37, bias=True)
                (_hyper_bias): Linear(in_features=1, out_features=37, bias=False)
                (_hyper_gate): Linear(in_features=1, out_features=37, bias=True)
              )
            )
            (activation_fns): ModuleList(
              (0): ELU(alpha=1.0)
              (1): ELU(alpha=1.0)
              (2): ELU(alpha=1.0)
            )
          )
        )
      )
    )
  )
)
Number of trainable parameters: 13845
Iter 0001 | Time 1.6511(1.6511) | Loss 52.635700(52.635700) | NFE Forward 20(20.0) | NFE Backward 20(20.0) | CNF Time 0.5000(0.5000)
…
